…
a\")"],"metadata":{"id":"UfWuK8DfdCkM","colab":{"base_uri":"https://localhost:8080/"},"executionInfo":{"status":"ok","timestamp":1739803347032,"user_tz":-60,"elapsed":56676,"user":{"displayName":"Lorenzo Ricciardulli","userId":"02438456850863679126"}},"outputId":"b41e37da-ea5e-4950-a148-51da8eb0db91"},"execution_count":2,"outputs":[{"output_type":"stream","name":"stdout","text":["Mounted at /content/drive\n"]},{"output_type":"execute_result","data":{"text/plain":["DistilBertForTokenClassification(\n","  (distilbert): DistilBertModel(\n","    (embeddings): Embeddings(\n","      (word_embeddings): Embedding(30522, 768, padding_idx=0)\n","      (position_embeddings): Embedding(512, 768)\n","      (LayerNorm): LayerNorm((768,), eps=1e-12, elementwise_affine=True)\n","      (dropout): Dropout(p=0.1, inplace=False)\n","    )\n","    (transformer): Transformer(\n","      (layer): ModuleList(\n","        (0-5): 6 x TransformerBlock(\n","          (attention): DistilBertSdpaAttention(\n","            (dropout): Dropout(p=0.1, inplace=False)\n","            (q_lin): Linear(in_features=768, out_features=768, bias=True)\n","            (k_lin): Linear(in_features=768, out_features=768, bias=True)\n","            (v_lin): Linear(in_features=768, out_features=768, bias=True)\n","            (out_lin): Linear(in_features=768, out_features=768, bias=True)\n","          )\n","          (sa_layer_norm): LayerNorm((768,), eps=1e-12, elementwise_affine=True)\n","          (ffn): FFN(\n","            (dropout): Dropout(p=0.1, inplace=False)\n","            (lin1): Linear(in_features=768, out_features=3072, bias=True)\n","            (lin2): Linear(in_features=3072, out_features=768, bias=True)\n","            (activation): GELUActivation()\n","          )\n","          (output_layer_norm): LayerNorm((768,), eps=1e-12, elementwise_affine=True)\n","        )\n","      )\n","    )\n","  )\n","  (dropout): Dropout(p=0.1, inplace=False)\n","  (classifier): Linear(in_features=768, out_features=21, bias=True)\n",")"]},"metadata":{},"execution_count":2}]},{"cell_type":"markdown","source":["Data preparation for test"],"metadata":{"id":"zq-Xu8VxdJuE"}},{"cell_type":"code","source":["pip install datasets"],"metadata":{"id":"LVXe_d2adKwJ","colab":{"base_uri":"https://localhost:8080/"},"executionInfo":{"status":"ok","timestamp":1739803355450,"user_tz":-60,"elapsed
…
